Python3/value_net.pkl (torch, 538543 bytes, 8 tensors)

value_layer1.weight f4 [256, 4]
0	0xbe93a5f6	-0.28837556
1	0x3e26c084	0.16284376
2	0x3d495220	0.049150586
3	0x3ef43bc2	0.47701842
4	0x3dd88158	0.10571545
5	0xbd832b38	-0.06404728
6	0xbe8e3304	-0.27773297
7	0x3d5baea0	0.053633332
8	0x3ed2f866	0.41205138
9	0x3ecf579a	0.40496522
10	0x3c34a040	0.011024535
11	0x3e7ea130	0.24866176
12	0xbee537aa	-0.4476903
13	0x3dcf20f0	0.10113704
14	0xbedf9002	-0.43664557
15	0xbe37a898	-0.17935407
16	0x3e31b208	0.1735307
17	0xbe175a90	-0.1478064
18	0xbea6602e	-0.32495254
19	0xbd2ddcc0	-0.04244685
20	0x3ece156c	0.4025072
21	0x3ed81970	0.42206907
22	0x3edfec3e	0.43734926
23	0xbdb7de58	-0.089779556
24	0xbece4f00	-0.40294647
25	0xbe237290	-0.15961671
26	0x3eb72e5a	0.3577755
27	0xbe5cdb8c	-0.21568125
28	0xbeed7934	-0.46381533
29	0xbe887868	-0.26654363
30	0x3eae570c	0.34050786
31	0xbe9a7622	-0.30168253
32	0xbe190c9c	-0.14946216
33	0xbe80e746	-0.25176448
34	0xbec4beda	-0.38426858
35	0x3e87cccc	0.26523435
36	0x3d2da450	0.04239303
37	0xbdf763b0	-0.12079561
38	0x3e7a7c40	0.2446146
39	0xbe900c16	-0.2813422
40	0xbea5f85c	-0.32416046
41	0xbb049100	-0.0020228028
42	0x3e24f380	0.16108513
43	0x3eababf2	0.3352962
44	0x3e916eb4	0.28404772
45	0x3eef3eee	0.467277
46	0x3e697608	0.22798932
47	0xbe7bdaac	-0.24595135
48	0xbed96556	-0.42460126
49	0x3e974bb4	0.29549944
50	0x3e9d9a8e	0.30781978
51	0xbdab8420	-0.0837481
52	0x3dff0668	0.12452394
53	0x3e8b3080	0.2718544
54	0x3d977e18	0.07397097
55	0x3e78f810	0.24313378
56	0xbd40a0a0	-0.047028184
57	0xbdb3e670	-0.08784187
58	0x3ef1a356	0.47194928
59	0x3eec5f80	0.4616661
60	0xbeb288d0	-0.34870005
61	0x3ec9d556	0.39420575
62	0x3ef03bd0	0.46920633
63	0xbec83964	-0.39106286
64	0x3de04978	0.10951513
65	0xbe446dc4	-0.19182497
66	0x3e40db8c	0.1883375
67	0x3e15c014	0.14624053
68	0xbe9f5134	-0.3111664
69	0xbcad8780	-0.021182775
70	0xbd9d44a0	-0.07679105
71	0xbe812182	-0.25220877
72	0x3dceb330	0.10092771
73	0xbd9b07b0	-0.07569826
74	0x3cda0540	0.026613832
75	0xbdbc4638	-0.09193081
76	0x3ecf9d38	0.40549636
77	0xbe8f86ac	-0.28032434
78	0xbeb252f6	-0.3482892
79	0xbea81e3c	-0.32835567
80	0xbe508008	-0.2036134
81	0x3d19db50	0.03756267
82	0x3ee559e8	0.44795156
83	0xbe9e5a38	-0.30928206
84	0xbe83808e	-0.25684017
85	0x3d686a40	0.056741953
86	0xbe848842	-0.25885206
87	0xbd6dd850	-0.05806762
88	0x3ef4b238	0.4779222
89	0xbede8b4c	-0.4346565
90	0xbeda2638	-0.42607284
91	0x3ece6b1a	0.40316087
92	0x3d0ea780	0.03482771
93	0x3e0cc798	0.13748014
94	0xbeae5fec	-0.34057558
95	0x3dcec5a0	0.10096288
96	0x3be20680	0.0068977475
97	0xbeaa7f2c	-0.3330015
98	0x3e0b6ad8	0.13614976
99	0xbd7a88e0	-0.06116569
100	0x3e478bd0	0.19486928
101	0xbecda202	-0.40162665
102	0x3ea6d612	0.32585198
103	0xbe6317c4	-0.22177035
104	0x3d88ff48	0.06689316
105	0x3e84c8e4	0.25934517
106	0xbe1a270c	-0.15053958
107	0x3ee694ee	0.450355
108	0x3ec1c64c	0.378466
109	0x3ed3eeaa	0.41393024
110	0xbe867b92	-0.26266152
111	0xbe3d8aa0	-0.18509912
112	0xbe2ef928	-0.17087233
113	0x3ee3cc16	0.44491643
114	0xbecead00	-0.40366364
115	0x3ca16380	0.019700766
116	0x3ec19706	0.37810534
117	0x3ef4c234	0.47804415
118	0x3e522178	0.2052058
119	0x3e8968be	0.26837724
120	0xbe658618	-0.22414434
121	0xbd735340	-0.059405565
122	0xbe7ce4d4	-0.24696666
123	0xbe999f24	-0.30004227
124	0xbebc9ea4	-0.36839783
125	0xbe1185d4	-0.14211208
126	0xbe8f4fd8	-0.27990603
127	0xbeac3eda	-0.33641702
128	0x3efb368e	0.4906506
129	0x3ee9084e	0.45514148
130	0x3df628c0	0.12019491
131	0xbeebd454	-0.4606043
132	0x3e63dd74	0.22252446
133	0x3e50cc18	0.20390356
134	0x3dd95438	0.106117666
135	0x3ee28a24	0.44246018
136	0x3dff7418	0.12473315
137	0xbd858170	-0.06518829
138	0x3e37aa24	0.17935997
139	0xbe906a44	-0.28206074
140	0xbdfbfc20	-0.123039484
141	0x3e6594a0	0.22419977
142	0xbea7d5e0	-0.3278036
143	0x3efeb424	0.4974681
144	0xbec5a012	-0.38598686
145	0xbd27e080	-0.040985584
146	0x3ddf7450	0.10910857
147	0xbeeb940c	-0.46011388
148	0x3ea4974e	0.32146686
149	0xbd748050	-0.05969268
150	0x3e06fa44	0.13181406
151	0xbe92f16c	-0.28699815
152	0xbe8eccc2	-0.27890593
153	0xbdb42a38	-0.08797115
154	0xbce027c0	-0.027362704
155	0x3e2c1a34	0.1680687
156	0x3cfaa700	0.03059721
157	0xbed44686	-0.41460055
158	0xbeda6254	-0.42653143
159	0x3e42e024	0.19030815
160	0xbebf50ea	-0.3736642
161	0x3eaf7f68	0.3427689
162	0xbe9b036e	-0.30276054
163	0xbe43cae0	-0.1912036
164	0xbe2814d0	-0.1641419
165	0x3e064b8c	0.13114756
166	0x3b86e280	0.0041163564
167	0x3eec3eac	0.46141565
168	0xbee0a20a	-0.43873626
169	0x3cf80560	0.030276
170	0xbd4bdfe0	-0.04977405
171	0xbecf4f90	-0.4049039
172	0x3e99b8d4	0.30023825
173	0xbd6f4d20	-0.05842316
174	0xbec276b8	-0.379812
175	0x3d3ae0a0	0.045624375
176	0xbba60380	-0.005066335
177	0xbe027360	-0.12739325
178	0xbef7083e	-0.48248476
179	0x3e28c3b0	0.16480899
180	0x3e8aafaa	0.27087146
181	0x3e6e250c	0.2325632
182	0xbd1c3930	-0.038140476
183	0x3e431c70	0.19053817
184	0x3cedc5e0	0.029025018
185	0xbe641934	-0.22275239
186	0x3c827da0	0.015929043
187	0xbe24eadc	-0.16105217
188	0xbeb5cb1a	-0.35506517
189	0xbefff1f4	-0.49989283
190	0x3e5703e0	0.20997572
191	0x3e7a881c	0.24465984
192	0x3eef7b7a	0.46773893
193	0xbd4cede0	-0.050031543
194	0x3ee30cd8	0.44345737
195	0xbea4e018	-0.3220222
196	0xbea2bff8	-0.31787086
197	0xbe45a2c4	-0.19300371
198	0x3cc0b400	0.02352333
199	0x3e8252cc	0.25453794
200	0xbe97fb02	-0.2968369
201	0x3e369b80	0.17832756
202	0xbec572da	-0.38564187
203	0x3e2cf22c	0.16889256
204	0xbee32292	-0.44362313
205	0xbe81e400	-0.25369263
206	0x3dcff800	0.10154724
207	0xbef1dd3a	-0.47239095
208	0x3d997bc8	0.074943125
209	0x3ee4a570	0.4465747
210	0x3e70bbd4	0.2350915
211	0xbe0b3784	-0.13595396
212	0x3e464bd4	0.19364864
213	0xbee5b74c	-0.44866407
214	0x3d88c520	0.066782236
215	0x3e5ca32c	0.2154662
216	0xbe60d8cc	-0.21957701
217	0x3e4c43a4	0.19947678
218	0xbe597540	-0.21236134
219	0x3ee6b50a	0.45059997
220	0xbdfb53a8	-0.122718155
221	0xbdcfce90	-0.101468205
222	0x3ed6ff56	0.4199168
223	0x3dd6c4c8	0.10486752
224	0x3e2f1e40	0.17101383
225	0xbea884c8	-0.32913804
226	0x3eda7fca	0.4267562
227	0x3cadba40	0.021206975
228	0x3eead458	0.4586513
229	0x3ccddd00	0.025129795
230	0xbdb91f00	-0.09039116
231	0x3da597d8	0.080856025
232	0x3e037108	0.12836087
233	0x3e5427c0	0.20718288
234	0xbe8e5286	-0.27797335
235	0x3e818cae	0.25302643
236	0x3d321bf0	0.043483675
237	0x3e226b5c	0.15861267
238	0xbc8043a0	-0.015657246
239	0x3e07f630	0.13277507
240	0x396bb000	0.00022476912
241	0x3e96fd0e	0.2948994
242	0x3ee3f59c	0.44523323
243	0x3e6305b0	0.22170138
244	0x3d9372b8	0.07199615
245	0xbde54b78	-0.11196035
246	0x3e7da6ec	0.24770707
247	0x3e020834	0.12698442
248	0x3e0e41f8	0.13892353
249	0xbe1b2c60	-0.15153646
250	0xbe7ce960	-0.246984
251	0xbe1a66ac	-0.15078229
252	0x3eb03d5a	0.34421808
253	0xbefbadde	-0.49156088
254	0x3ec85b62	0.3913222
255	0xbec00fbe	-0.3751201

value_layer1.bias f4 [256]
0	0xbe1a6620	-0.1507802
1	0xbdfb43f8	-0.122688234
2	0xbe267d8c	-0.1625883
3	0x3c83ad40	0.016073823
4	0x3e28ea88	0.16495717
5	0xbc964aa0	-0.01834613
6	0x3e1a03d8	0.15040529
7	0x3da0fa50	0.07860243
8	0x3ed8c694	0.42339003
9	0x3ec6dd8e	0.38840908
10	0xbeed3296	-0.46327657
11	0xbe9a7e60	-0.3017454
12	0x3ed67be0	0.41891384
13	0x3e498ac8	0.19681847
14	0xbbe3df00	-0.006954074
15	0xbed8116e	-0.42200798
16	0xbe2282e4	-0.15870243
17	0x3d0eec90	0.034893572
18	0xbc045d40	-0.008078873
19	0x3eb4ff6c	0.3535112
20	0xbee41044	-0.4454366
21	0x3ec27bf4	0.37985194
22	0x3e57f954	0.21091205
23	0xbd1d0290	-0.038332522
24	0x3eae1b62	0.34005266
25	0x3ed5b70c	0.41741216
26	0x3e86ee64	0.26353753
27	0xbe89107a	-0.26770383
28	0x3de0ba48	0.1097303
29	0xbee6fde8	-0.4511559
30	0xbe87f172	-0.26551396
31	0xbe54c7f0	-0.20779395
32	0x3ee9e9c6	0.45686167
33	0x3ddb1a60	0.1069839
34	0x3efe91a4	0.4972049
35	0x3edb3aba	0.42818242
36	0xbeb79b54	-0.35860693
37	0x3e20d56c	0.15706414
38	0x3dca6a18	0.09883517
39	0x3e857c56	0.26071423
40	0x3da14de0	0.078761816
41	0x3ec1e420	0.37869358
42	0x3e0be768	0.13662493
43	0x3e8b753e	0.27237886
44	0x3eabd33e	0.33559602
45	0xbec8d3f4	-0.39224207
46	0x3e1517b4	0.14559823
47	0xbcda59a0	-0.026654065
48	0x3e322694	0.17397529
49	0x3e0e4c28	0.13896239
50	0x3eab85b4	0.33500445
51	0x3ec1c192	0.37842995
52	0xbe376a48	-0.17911637
53	0x3edfafdc	0.43688858
54	0x3ef843ac	0.4848913
55	0x3eaa60bc	0.33276927
56	0x3efd7a18	0.49507213
57	0x3e4f0dd4	0.20220119
58	0x3efefc16	0.498017
59	0xbdb3c0b0	-0.087769866
60	0x3d81b850	0.06333983
61	0xbe8fac88	-0.28061318
62	0x3e649404	0.22322088
63	0xbd99e7f8	-0.07514948
64	0xbec3e2d6	-0.38259
65	0xbef395be	-0.47575182
66	0xbee3a0b6	-0.4445855
67	0xbd8ce008	-0.06878668
68	0x3e677834	0.22604448
69	0xbe1d5bc0	-0.15367031
70	0x3ecd63ba	0.40115148
71	0xbd078800	-0.033088684
72	0xbe8d440a	-0.27590972
73	0x3e7f229c	0.24915546
74	0xbdcec448	-0.100960314
75	0xbe46ba5c	-0.19407028
76	0xbe99c7d0	-0.30035257
77	0xbed70a54	-0.42000067
78	0x3ea23394	0.31679976
79	0xbef83eee	-0.48485512
80	0xbe45cd84	-0.19316679
81	0x3e5a9c08	0.21348584
82	0xbe2f0c98	-0.17094648
83	0xbedc5f28	-0.43041348
84	0x3ddb2cc8	0.10701901
85	0x3d687b30	0.056758106
86	0xbe26299c	-0.1622681
87	0x3eca48fa	0.39508802
88	0x3e490b18	0.19633138
89	0xbef6a09a	-0.48169404
90	0x3dc100a0	0.09423947
91	0x3ed1e090	0.4099164
92	0x3dbbbf00	0.0916729
93	0xbe20bb88	-0.15696537
94	0xbed3a588	-0.41337228
95	0x3e39a548	0.18129456
96	0x3ef7e356	0.4841563
97	0x3cc731e0	0.024315774
98	0x3e376694	0.17910224
99	0x3de83418	0.11338061
100	0x3e95c5de	0.29252523
101	0x3ed56e3a	0.4168566
102	0xbe3c1f58	-0.18371332
103	0x3ec98548	0.39359498
104	0xbd6a6060	-0.057220817
105	0xbe62c13c	-0.22144026
106	0x3e8b6528	0.27225614
107	0xbe8ddfe4	-0.27709877
108	0xbbfcf880	-0.007720053
109	0xbeb24688	-0.34819436
110	0xbe1ff104	-0.15619284
111	0xbebd83ae	-0.37014526
112	0x3e9d8ac8	0.30769944
113	0x3eb5bab0	0.35493994
114	0xbdfa3d38	-0.12218708
115	0xbe821fbe	-0.25414842
116	0x3e9689be	0.29401964
117	0x3ee46676	0.44609421
118	0xbe956a20	-0.2918253
119	0x3edde6e0	0.43340206
120	0x3e563514	0.20918685
121	0xbae2d600	-0.0017306209
122	0x3ebd97ce	0.3702988
123	0x3e496cd4	0.19670421
124	0xbe7466a4	-0.2386728
125	0xbe1b546c	-0.15168923
126	0x3da73428	0.08164245
127	0xbcf7c040	-0.03024304
128	0xbe9ccd04	-0.30625165
129	0xbee433ce	-0.44570774
130	0xbd0bb410	-0.034107268
131	0x3e226584	0.15859038
132	0xbd86d190	-0.065829396
133	0x3d4754c0	0.04866481
134	0xbe771ab8	-0.24131286
135	0x3eaec74e	0.34136432
136	0x3ef207d0	0.47271585
137	0x3eb2bb04	0.34908307
138	0xbe842984	-0.25812924
139	0x3d0800d0	0.0332039
140	0xbed3c2dc	-0.41359603
141	0xbddc1c70	-0.107476115
142	0xbd483740	-0.048880816
143	0x3efff2d0	0.4998994
144	0xbed5708e	-0.41687435
145	0x3edbbe6c	0.42918718
146	0x3daae1b0	0.08343828
147	0xbe722d44	-0.2365008
148	0x3db59fd8	0.088683784
149	0x3dcdf398	0.100562274
150	0xbcea1920	-0.028576434
151	0x3ea0ac90	0.31381655
152	0xbebb9b5c	-0.36641967
153	0xbe6683f4	-0.22511274
154	0xbeeb6d48	-0.45981812
155	0xbed6f79e	-0.41985792
156	0x3e97b884	0.29632962
157	0xbe14caa0	-0.1453042
158	0x3e238384	0.15968138
159	0xbec8243e	-0.3909015
160	0xbe66b1f8	-0.22528827
161	0x3d2496b0	0.04018277
162	0x3da489c8	0.08034092
163	0x3e4dde8c	0.20104426
164	0xbecafc20	-0.3964548
165	0xbeabe8d2	-0.33576065
166	0x3e860210	0.2617345
167	0xbebaa8f2	-0.3645702
168	0x3dddbcc8	0.10827023
169	0x3df65068	0.12027055
170	0x3e15b984	0.1462155
171	0xbd888e00	-0.06667709
172	0xbe831e4e	-0.25609058
173	0x3e2040c4	0.15649706
174	0xbe607958	-0.21921289
175	0x3c056d80	0.008143783
176	0x3ebb69c8	0.36604142
177	0xbda290f8	-0.07937807
178	0xbdf1fb68	-0.1181553
179	0xbd6d3a30	-0.05791682
180	0xbef53f06	-0.47899646
181	0x3ed4b59a	0.415448
182	0xbefac93a	-0.4898165
183	0xbe936b08	-0.28792596
184	0x3ea40e40	0.32042122
185	0x3ec887ea	0.39166194
186	0x3e0ffdb8	0.1406163
187	0x3ee8c240	0.454607
188	0x3deb9c48	0.11504418
189	0x3e585608	0.21126568
190	0x3e09fac4	0.13474566
191	0xbe9f595a	-0.31122857
192	0xbeff0e0c	-0.49815404
193	0xbea0215c	-0.3127545
194	0x3ea98d34	0.33115542
195	0xbddd6638	-0.10810512
196	0x3e4e5de0	0.20152998
197	0x3e886eda	0.26647073
198	0xbe9ce7bc	-0.3064555
199	0xbe564e98	-0.20928419
200	0xbe30c32c	-0.17261952
201	0xbe763c48	-0.24046433
202	0xbd8c88b8	-0.068620145
203	0xbe416f84	-0.18890196
204	0x3ecabbb4	0.3959633
205	0xbec59cd2	-0.38596207
206	0xbee5080c	-0.44732702
207	0x3ef6c02e	0.48193496
208	0xbee837c2	-0.4535504
209	0x3dc9eef0	0.09860027
210	0x3d95eb18	0.07320231
211	0x3ee379be	0.4442882
212	0x3dec1c70	0.115288615
213	0x3dc6daf0	0.09709728
214	0xbed8d7a4	-0.4235202
215	0x3d8ba840	0.068192005
216	0x3edba902	0.4290238
217	0x3e6b3724	0.22970253
218	0x3eb115b6	0.34586877
219	0x3dbafc40	0.09130144
220	0x3e83394a	0.25629646
221	0x3e098dec	0.13433045
222	0x3e1c323c	0.15253538
223	0xbea0a5f0	-0.313766
224	0xbe400094	-0.1875022
225	0x3ddbbcd0	0.107293725
226	0x3e93c114	0.28858244
227	0xbda5b7c8	-0.08091694
228	0x3d0c59a0	0.03426516
229	0x3e9706f2	0.29497486
230	0x3e922726	0.28545493
231	0xbe77b888	-0.24191487
232	0x3da2cb50	0.07948935
233	0x3ecf10a2	0.40442377
234	0xbefd0f08	-0.4942553
235	0xbe13e4cc	-0.14442748
236	0xbd87a870	-0.06623924
237	0xbe955d50	-0.29172754
238	0xbebf4378	-0.37356162
239	0xbdff8ac8	-0.12477642
240	0xbebbf3c2	-0.3670941
241	0xbe671098	-0.22564924
242	0x3b61ec00	0.0034472942
243	0x3c988640	0.018618703
244	0x3eacad08	0.33725762
245	0xbebcb550	-0.3685708
246	0xbe579a5c	-0.21054977
247	0x3ecd15b0	0.4005561
248	0xbecc8b8c	-0.39950216
249	0x3e7d28fc	0.24722666
250	0x3edc4c12	0.43026787
251	0x3eb90f16	0.36144322
252	0x3edfa95e	0.43683904
253	0xbea2bc5a	-0.31784326
254	0xbdb295b0	-0.08719957
255	0xbdc31420	-0.09525323

value_layer2.weight f4 [256, 256]
0	0x3c336f48	0.0109518245
1	0xbc825b6c	-0.015912734
2	0xbd66341c	-0.05620204
3	0x3c81183c	0.015758626
4	0x3b4e7e60	0.003150843
5	0xbc5d77d0	-0.013517335
6	0x3d7ad70a	0.061240233
7	0x3c41b130	0.01182203
8	0xbcdbd750	-0.026836067
9	0xbd70b850	-0.058769524
10	0x3d4100e8	0.047120005
11	0xbd6e9a54	-0.058252648
12	0x3c7e46a8	0.015519775
13	0x3d1e8106	0.038697265
14	0xbcb7b30c	-0.022424243
15	0xbcd28360	-0.02569741
16	0xbcb209f4	-0.021733262
17	0x3d3b39fa	0.045709588
18	0x3b833e40	0.0040052235
19	0xbd750f88	-0.059829265
20	0x3d02b42a	0.0319101
21	0xbcc6ee9c	-0.0242837
22	0x3cd22238	0.025651082
23	0xbb6609a0	-0.0035100952
24	0x3c55ba58	0.013044916
25	0xbd7c6ecc	-0.0616291
26	0xbc24b8c8	-0.010053821
27	0xbd162832	-0.036659427
28	0x3d46185a	0.048363067
29	0x3bd32300	0.0064433813
30	0xbca6c1fc	-0.02035617
31	0x3d147842	0.0362475
32	0x3bab9c40	0.0052371323
33	0x3d160ca4	0.03663315
34	0x3cadda10	0.021222144
35	0x3cafb0c8	0.0214466
36	0x3d1d6b26	0.038432263
37	0xbcda0ccc	-0.02661743
38	0x3d3a93a2	0.04555095
39	0x3c30e5d8	0.0107969865
40	0x3c8bf0d8	0.017082617
41	0xbca0db3c	-0.01963579
42	0xbd70789a	-0.058708765
43	0x3d639ec6	0.05557134
44	0xbac56b00	-0.0015061796
45	0x3d39e214	0.04538162
46	0x3d6a2c9e	0.057171457
47	0x3d789676	0.060690366
48	0x3d421934	0.047387317
49	0x3cb36eb4	0.021903373
50	0xbd0f381e	-0.034965627
51	0xbc2b4038	-0.010452323
52	0x3d48a94a	0.04898957
53	0xbd7c92ea	-0.061663546
54	0xbb9a4cb0	-0.004708849
55	0xbba2dd40	-0.0049702227
56	0x3d5f6b98	0.05454597
57	0x3d1b619a	0.037934877
58	0x3ca20910	0.019779712
59	0xbc5e71b0	-0.01357691
60	0xbc6500a0	-0.0139772
61	0x3cb2fe7c	0.021849863
62	0xbd473b5c	-0.048640594
63	0x3cb6feb4	0.022338249
64	0x3d5a056c	0.053227827
65	0x3bd35670	0.006449513
66	0x3d2103b6	0.03931018
67	0x3d5d22ae	0.05398815
68	0x3bdb7840	0.0066976845
69	0x3d36c220	0.044618726
70	0xbd769382	-0.06019927
71	0x3caaa944	0.020832665
72	0xbd7579ae	-0.059930496
73	0xbc6b55f8	-0.014363758
74	0x3ce29548	0.027659073
75	0x3b5e85c0	0.0033954233
76	0x3d69e3e8	0.057102114
77	0x3bae3880	0.005316794
78	0x3d50ce30	0.050977886
79	0x3d54419e	0.05182039
80	0x3d43226e	0.047640257
81	0x3d4ad71c	0.04952155
82	0x3d0c8212	0.034303732
83	0xbc0be1f0	-0.008537754
84	0xbd7faa8a	-0.062418498
85	0x3d7970ba	0.06089852
86	0xbd2db0fe	-0.04240512
87	0x3cf7195c	0.03016346
88	0xbc6c03a0	-0.014405161
89	0xbbb7cdb0	-0.0056092367
90	0xbc4334b8	-0.011914425
91	0x3c1bd930	0.009512231
92	0xbcf79310	-0.030221492
93	0xbd7e7c4c	-0.062130257
94	0x3d38e392	0.045138903
95	0xbbb8f140	-0.0056439936
96	0xbd14b942	-0.036309488
97	0xbceb3584	-0.028712042
98	0xbcc93934	-0.02456341
99	0xbcb4b338	-0.022058114
100	0x3ca4a44c	0.020097874
101	0xbd69a2fe	-0.057040207
102	0xbd2be914	-0.041970327
103	0xbd48d740	-0.049033403
104	0xbb16fa00	-0.0023037195
105	0xbbda0640	-0.006653577
106	0xbd4b1db4	-0.049588874
107	0x3d15a29a	0.036532022
108	0x3c933ebc	0.01797425
109	0xbcaf2c20	-0.021383345
110	0xbca3e2c0	-0.020005584
111	0xbd2a9c16	-0.04165276
112	0xbbdd5c50	-0.0067553893
113	0xbccf115c	-0.025276832
114	0x3c07f5d0	0.008298352
115	0xbc835720	-0.016032755
116	0xbd42f7ec	-0.047599718
117	0xbcf31c3c	-0.02967655
118	0x3d7cde52	0.06173546
119	0xbd3c2d34	-0.045941547
120	0x3d5fc9c8	0.054635793
121	0x3ce44bbc	0.027868144
122	0x3d212cc4	0.039349332
123	0xbd34d986	-0.04415276
124	0xbc226b78	-0.009913318
125	0x3be4c1f0	0.006981127
126	0xbcb6399c	-0.022244267
127	0xbd4296ba	-0.047507025
128	0x3c793990	0.015211478
129	0x3c58b120	0.013225824
130	0xbd551020	-0.05201733
131	0xbcb49ac0	-0.022046447
132	0x38f9a400	0.000119037926
133	0x3ce794e0	0.028269231
134	0xbd00a5d6	-0.031408153
135	0xbd710666	-0.058843993
136	0x3d045a50	0.03231269
137	0x3bf4b6b0	0.007468067
138	0x3d3cbbcc	0.046077535
139	0x3caa190c	0.020763896
140	0xbd7d932e	-0.06190794
141	0xbd195c10	-0.037441313
142	0xbd34889c	-0.044075593
143	0x3d75dbae	0.060023956
144	0xbd131708	-0.035910636
145	0xbc9c0b18	-0.019048259
146	0xbd664720	-0.056220174
147	0x3d0564f4	0.03256698
148	0x3ccabed4	0.024749197
149	0xbd607284	-0.05479671
150	0xbd5bc1b8	-0.05365154
151	0x3c784178	0.015152328
152	0xbb6bd380	-0.0035984218
153	0xbd5a3b56	-0.053279243
154	0x3d32db86	0.043666385
155	0x3ceff5d8	0.029292032
156	0xbd0b1a26	-0.033960484
157	0x3d142b02	0.036173828
158	0x3c179258	0.0092512
159	0x3d01c0e0	0.03167808
160	0x3c704b20	0.014666349
161	0x3c59b930	0.013288781
162	0x3d352324	0.044222966
163	0x3c9428b8	0.018085822
164	0xbc06a568	-0.008218147
165	0xbd18b7cc	-0.037284657
166	0x3cf37a7c	0.029721491
167	0xbc1a0118	-0.009399675
168	0xb9fded00	-0.000484325
169	0x3b5e96c0	0.0033964366
170	0x3d7a9544	0.061177507
171	0x3d1f8d56	0.038953148
172	0x3ad5e940	0.0016320124
173	0xbd2386b0	-0.03992337
174	0x3cf35644	0.02970422
175	0xbcc90f1c	-0.024543338
176	0xbd14e200	-0.036348343
177	0x3d09d88a	0.033653773
178	0xbd080c82	-0.033215053
179	0x3d0ed924	0.03487505
180	0xbbb03150	-0.0053769723
181	0xbd318494	-0.043339327
182	0x3c4ae7d0	0.01238437
183	0x3d0c7b20	0.03429711
184	0xbd179c0c	-0.037014052
185	0x3d430bd2	0.047618695
186	0xbd2482b8	-0.040163726
187	0x3d1a7abe	0.037714712
188	0x3bc79fa0	0.006092027
189	0x3d783304	0.060595527
190	0x3c9deb3c	0.019277208
191	0x3cfd6740	0.030933022
192	0x3c831fd8	0.016006395
193	0xba62f680	-0.0008657947
194	0x3d5f9fb2	0.054595657
195	0x3bccfe50	0.0062559023
196	0x3cc25244	0.023720868
197	0x3d7db6b6	0.061941825
198	0x3d1341a4	0.03595127
199	0x3d032374	0.032016233
200	0x3aa19000	0.001232624
201	0xbc9f4ac0	-0.019444823
202	0xbba18950	-0.004929699
203	0xbb862b90	-0.0040945485
204	0xbd26576a	-0.04061071
205	0x3ce8eab0	0.02843222
206	0xbbe2ebe0	-0.006925091
207	0x3d2b7f26	0.041869305
208	0x3cbe0550	0.023195893
209	0x3c3374e8	0.010953166
210	0xbca951b4	-0.020668842
211	0x3d7518fe	0.059838288
212	0xbd4d82da	-0.050173618
213	0x3d436a2a	0.047708668
214	0xbd4c0e10	-0.0498181
215	0xbd20cc34	-0.039257243
216	0x3ceb6610	0.02873519
217	0xbc987244	-0.018609174
218	0x3c61f940	0.013792336
219	0xbc9a935c	-0.018869095
220	0xbd660538	-0.05615732
221	0xbc836ab0	-0.016042084
222	0x3bf6b450	0.007528819
223	0xbd593864	-0.053032294
224	0x3c729690	0.014806405
225	0xbcf0f1e4	-0.029412217
226	0xbd6b22ec	-0.05740635
227	0xbd609d78	-0.054837674
228	0x3c339998	0.010961913
229	0x3d7a4e24	0.061109677
230	0x3c9c7304	0.019097812
231	0xbcd075c4	-0.02544678
232	0x3d39deb6	0.04537841
233	0x3d5e5e48	0.054289132
234	0xbcc3bc0c	-0.023893379
235	0xbd76b482	-0.06023074
236	0xbcbf9d10	-0.023390323
237	0x3d629594	0.05531843
238	0x3b540b20	0.0032355264
239	0xbab52440	-0.0013820007
240	0x3ca03d7c	0.019560568
241	0xbd0c68bc	-0.03427957
242	0xbd073af8	-0.03301522
243	0xbd288fc6	-0.041152738
244	0xbd6eec2e	-0.058330707
245	0xbd70fdaa	-0.058835663
246	0xbcb413bc	-0.021982066
247	0xbd3ad952	-0.04561741
248	0xbd29cbe0	-0.041454196
249	0xbc61f3f8	-0.013791077
250	0x3d6da656	0.05801996
251	0x3d433264	0.047655478
252	0xbb8a8a20	-0.0042278916
253	0xbd331300	-0.04371929
254	0x3cb9ff84	0.022704847
255	0x3d57930a	0.05263046

value_layer2.bias f4 [256]
0	0xbc021bc0	-0.007941186
1	0x3d3ce8ec	0.04612057
2	0x3d6cf4a6	0.057850502
3	0xbc81a2a8	-0.01582463
4	0x3d38e12a	0.04513661
5	0xbba71750	-0.0050992146
6	0x39400200	0.00018311292
7	0x3cf0f5e0	0.029414117
8	0xbd3e83ee	-0.046512537
9	0x3d635718	0.05550298
10	0xbd41ff66	-0.047362708
11	0x3d281782	0.041038044
12	0x3ce9b314	0.028527774
13	0xbd06ac48	-0.032879144
14	0x3bd96800	0.006634712
15	0x3c93960c	0.018015884
16	0x3d7e0aae	0.062021904
17	0xbd319074	-0.04335065
18	0x3cdd1958	0.026989624
19	0xbd6d5208	-0.05793956
20	0xbbae3c40	-0.005317241
21	0xbc0cefa0	-0.008602053
22	0x3c7dac20	0.015482932
23	0x3d74f2e6	0.05980196
24	0xbc01f0a0	-0.007930905
25	0xbcdac7b8	-0.026706561
26	0x3c90b394	0.017663755
27	0xbd46d8d6	-0.048546635
28	0x3d3c8070	0.046020925
29	0x3d337790	0.043815196
30	0x3a810a00	0.0009844899
31	0xbd700ed8	-0.058607906
32	0x3c490830	0.012270018
33	0x3b912920	0.0044299513
34	0xbd7af2c8	-0.06126669
35	0x3d06ce56	0.03291162
36	0xbd521508	-0.05128959
37	0xbcdac76c	-0.02670642
38	0x3cc2badc	0.023770742
39	0xbcb4c200	-0.022065163
40	0x3cc97308	0.024590984
41	0xbc9e38b4	-0.019314148
42	0xbcbb363c	-0.02285301
43	0xbb1faf20	-0.0024365857
44	0x3c1dc188	0.009628661
45	0x3c5339f8	0.012892239
46	0xbbc8aed0	-0.006124355
47	0x3d2b45d4	0.04181464
48	0x3c02a6f0	0.007974371
49	0xbd0b1304	-0.03395368
50	0xbb549d00	-0.0032442212
51	0x3d198948	0.037484437
52	0xbd6e77c8	-0.0582197
53	0xbd40830e	-0.046999983
54	0x3d5550e8	0.05207911
55	0x3c13e780	0.009027362
56	0x3d4ec840	0.050483942
57	0x3c944270	0.018098086
58	0x3d6a129c	0.057146654
59	0x3c466910	0.01211001
60	0x3d5e8e62	0.054335006
61	0xb7e33000	-2.708286e-05
62	0x3c819bb0	0.015821308
63	0x3d125614	0.03572662
64	0xbc95a718	-0.018268153
65	0x3c3e4b28	0.011614598
66	0xbd156b28	-0.036479145
67	0x3d7b243c	0.061313853
68	0xbd235800	-0.039878845
69	0xbd67fd4c	-0.056638047
70	0x3c19b4a0	0.009381443
71	0x3cb09950	0.02155748
72	0xbd5d2328	-0.053988606
73	0x3cb82648	0.022479191
74	0x3d3557de	0.04427325
75	0xbd34624e	-0.044039063
76	0xbd524a1e	-0.051340215
77	0x3d0dc0d0	0.03460771
78	0xbd708bde	-0.058727138
79	0xbcedb9c4	-0.029019244
80	0xbd1539b0	-0.03643197
81	0xbd09c096	-0.03363093
82	0xbd1ab85a	-0.037773468
83	0xbce08aa4	-0.027409859
84	0xbc7cf4f8	-0.0154392645
85	0x3b7f7be0	0.0038983747
86	0xbc9be3ec	-0.01902958
87	0x3cbfe848	0.02342619
88	0xbd4755e2	-0.04866589
89	0x3cb63718	0.022243068
90	0xbbe9e740	-0.007138163
91	0xbd745872	-0.05965466
92	0x3d6858b2	0.05672521
93	0xbca06258	-0.019578144
94	0xbae2d2c0	-0.001730524
95	0xbd322652	-0.043493576
96	0x3d171738	0.036887378
97	0xbcd24b38	-0.025670633
98	0x3d3c884a	0.046028413
99	0x39a6e600	0.0003183335
100	0x3d2ae05a	0.041717865
101	0xbc098670	-0.008393869
102	0xbd21efa6	-0.039535187
103	0x3d315296	0.04329165
104	0x3d3fe1f2	0.046846338
105	0xbc663c18	-0.014052413
106	0x3cab4e1c	0.020911269
107	0xbd6f63d6	-0.05844482
108	0xbd6a6a3a	-0.05723021
109	0xbce06550	-0.02739206
110	0x3d7c6b6e	0.06162589
111	0xbc118b58	-0.00888332
112	0xbd2b88ee	-0.041878633
113	0xbcb64ef0	-0.022254437
114	0x3cf61364	0.030038543
115	0xbd5a6e84	-0.053328052
116	0xbd418528	-0.04724613
117	0xbc5e9c78	-0.01358711
118	0xbd7ac480	-0.061222553
119	0x3c12b3f0	0.008954033
120	0xbc83de5c	-0.01609724
121	0xbd4975f2	-0.049184747
122	0x3cbe0c64	0.023199268
123	0xbc8bf734	-0.01708565
124	0x3d4edd98	0.050504297
125	0x3c47e6c0	0.012201011
126	0x3b1f7c40	0.0024335533
127	0xba600a00	-0.0008546412
128	0xbd78f024	-0.06077589
129	0xbd447c14	-0.047969893
130	0x3d1638fc	0.03667544
131	0xbd2c5dca	-0.04208163
132	0xbd7d2342	-0.061801203
133	0xbd0563fa	-0.03256605
134	0xbd307a6e	-0.043085508
135	0x3b8b1350	0.0042442456
136	0x3c8bb1d0	0.017052561
137	0xbc939974	-0.018017508
138	0xbcea7104	-0.028618343
139	0xbd27a482	-0.04092837
140	0x3d3d9404	0.046283737
141	0xbd092e0e	-0.033491187
142	0xbcb14664	-0.02164001
143	0x3cf98124	0.030457087
144	0xbd1a266c	-0.0376343
145	0x3ccde2c4	0.025132544
146	0xbc12c430	-0.008957908
147	0x3cc290e0	0.023750722
148	0xbc4b4ff8	-0.012409203
149	0xbd3b3fa2	-0.04571498
150	0x3d2e0f9a	0.042495348
151	0xbcff116c	-0.031136237
152	0xbcd11f54	-0.025527634
153	0xbd3fd38a	-0.0468326
154	0xbc085660	-0.008321375
155	0x3d099e66	0.033598326
156	0x3d7cd708	0.061728507
157	0x3c996028	0.018722609
158	0x3d7f54bc	0.06233667
159	0xbd7e6b6a	-0.062114157
160	0x3cc7b0dc	0.024376325
161	0x3d2df5d2	0.04247076
162	0xbce165f0	-0.027514428
163	0x3c1cfb30	0.009581372
164	0xbca04e48	-0.019568577
165	0xbd507d7c	-0.05090092
166	0x3d0723e6	0.03299322
167	0x3d199432	0.037494846
168	0x3be5e7f0	0.0070161745
169	0xbc697298	-0.014248513
170	0x3c474720	0.012162954
171	0x3d18c034	0.037292674
172	0x3ba8ada0	0.005147651
173	0xbd29f918	-0.04149732
174	0x3c4350e0	0.011921138
175	0xbd77f36c	-0.06053488
176	0xbbb45680	-0.0055034757
177	0xbaf66040	-0.0018796995
178	0xbd662a48	-0.056192666
179	0x3c19ba48	0.009382792
180	0xbcdc4540	-0.02688849
181	0xbd67f906	-0.05663397
182	0xbcd93614	-0.026515044
183	0xbd1b4e6a	-0.03791658
184	0x3d77f5b6	0.060537063
185	0xbd78464e	-0.060613923
186	0x3cb9cce0	0.0226807
187	0x3d75f19e	0.060044877
188	0xbb50e840	-0.0031876713
189	0x3d4df274	0.05028005
190	0xbc6cc2f0	-0.014450774
191	0x3d098ffe	0.033584587
192	0xbd147d78	-0.03625247
193	0xbd484af8	-0.04889962
194	0xbd7e5030	-0.06208819
195	0xbd1f7a42	-0.038934954
196	0xbd77e594	-0.060521677
197	0x3d35972a	0.044333614
198	0x3ca46c1c	0.020071082
199	0x3cc6f604	0.024287231
200	0x3cfa5324	0.030557223
201	0xbd28b27e	-0.04118585
202	0xbcf68678	-0.030093417
203	0x3c939458	0.018015072
204	0x3bee5d40	0.0072743
205	0xbd59ec6a	-0.053203978
206	0x3d19c60c	0.037542388
207	0x3c35ab10	0.011088148
208	0xbd323bec	-0.043514177
209	0x3c564a88	0.013079293
210	0x3be7e050	0.0070763007
211	0x3cb25460	0.021768749
212	0xbd1fd494	-0.03902109
213	0x3a7ae700	0.0009571165
214	0xbc0a15f8	-0.008428089
215	0x3d7a5c48	0.061123163
216	0xbd446d82	-0.047955997
217	0xbc8b4008	-0.016998306
218	0x3d64f78a	0.055900134
219	0x3c474d30	0.012164399
220	0x3d300436	0.042972766
221	0xbd5cc0b8	-0.05389473
222	0x3c767c20	0.015044242
223	0xbd7d2438	-0.06180212
224	0xbd3a024c	-0.045412347
225	0xbd3f3ff6	-0.046691857
226	0x3cb0c098	0.02157621
227	0xbccf4ea4	-0.025306053
228	0x3d73ac64	0.059490576
229	0xbd79459a	-0.060857393
230	0xbd74aad0	-0.059733212
231	0xbd63679e	-0.05551874
232	0xbced38ac	-0.028957687
233	0x3c3b7050	0.011440352
234	0xbd6e5f2a	-0.058196224
235	0x3c062b50	0.008189037
236	0xbc88a3c0	-0.016679645
237	0xba9e2080	-0.0012064129
238	0x3b879540	0.004137665
239	0x3d247a08	0.04015544
240	0xbd5a6848	-0.053322107
241	0xbc860bac	-0.016362987
242	0xbb2c03a0	-0.0026247278
243	0x3ca41b40	0.020032525
244	0xbd61f18e	-0.055162005
245	0xbd0d14c2	-0.034443624
246	0xbc88815c	-0.016663246
247	0x3d09a5d2	0.033605404
248	0xbd6abdd8	-0.057309955
249	0x3d4737f8	0.04863736
250	0xbd08b6ae	-0.033377342
251	0xbd56d20e	-0.052446418
252	0xbc01de28	-0.007926501
253	0x3cd9c660	0.02658385
254	0x3c87098c	0.016484044
255	0x3c25b278	0.010113351

value_layer3.weight f4 [256, 256]
0	0xbd092252	-0.033479996
1	0xbcabfe70	-0.020995349
2	0xbd289eb2	-0.04116697
3	0x3caf2d98	0.021384045
4	0xbd7a2c34	-0.06107731
5	0x3d7fa418	0.06241235
6	0xbd4574b6	-0.048207007
7	0xbd71a7c8	-0.0589979
8	0x3c7b3750	0.015333012
9	0xbd2bcb7a	-0.041942097
10	0x3cc89bb0	0.0244883
11	0xbc1aebc0	-0.009455621
12	0xbbbdc650	-0.005791463
13	0x3c94bba0	0.018155873
14	0x3d1a2246	0.037630342
15	0xbced034c	-0.028932236
16	0xbc5117c0	-0.01276201
17	0xbc8884f4	-0.01666496
18	0x3caf46bc	0.021396033
19	0x3d6391ec	0.055559084
20	0x3d21776a	0.039420523
21	0xbd0e7c6a	-0.03478662
22	0xbce5e368	-0.028062537
23	0x3af33780	0.0018555969
24	0x3d2e0e18	0.04249391
25	0x3c4bbdc0	0.012435377
26	0x3bcd1670	0.0062587783
27	0x3c5a3800	0.0133190155
28	0x3c5bccc8	0.013415523
29	0x3d54cce0	0.051953197
30	0xbd1b0dbe	-0.037854902
31	0xbd76cec2	-0.060255773
32	0xbd7800ac	-0.060547516
33	0x3d094e0e	0.033521704
34	0xbd5d6688	-0.05405286
35	0x3cf584fc	0.029970638
36	0x3d348242	0.044069536
37	0xbd3292b6	-0.043596946
38	0x3c9cc0d4	0.019134916
39	0xbc0022e0	-0.007820815
40	0xbd622960	-0.05521524
41	0xbd588042	-0.05285669
42	0xba5e0b00	-0.0008470267
43	0xbc916d60	-0.01775235
44	0x3c9b61dc	0.018967561
45	0x3c8fa1c0	0.017533183
46	0xbd4dfc50	-0.050289452
47	0xbd716918	-0.058938116
48	0xbd50a53e	-0.050938837
49	0xbd5c14ea	-0.053730883
50	0xbce9d954	-0.028546013
51	0x3c7b9770	0.01535593
52	0x3b8b54e0	0.0042520612
53	0xbd57cc3a	-0.052685
54	0xbca24d94	-0.019812383
55	0xbd3234a4	-0.043507233
56	0x3cc562f4	0.024095036
57	0xbd3f2c00	-0.04667282
58	0x3ba751e0	0.005106196
59	0x3cbfff28	0.023437098
60	0xbd1aeeae	-0.03782528
61	0x3d6bf098	0.057602495
62	0xbca99a50	-0.020703465
63	0xbc49f7c0	-0.012327135
64	0xbc928004	-0.017883308
65	0xbc882588	-0.016619459
66	0x3d17d954	0.037072495
67	0xbd76753c	-0.060170397
68	0x3d73388a	0.05938009
69	0x3c4c0468	0.012452222
70	0xbd0d9ee2	-0.03457535
71	0x3d6be9b4	0.057595924
72	0x3d491be8	0.04909888
73	0xbc77cc30	-0.015124366
74	0xbbc9e250	-0.0061610118
75	0xbd2633c2	-0.040576704
76	0x3bbcfc80	0.005767405
77	0x3d641e9c	0.055693254
78	0x3c78d5a0	0.015187651
79	0x3c1a23a0	0.009407908
80	0x3c9c5814	0.019084968
81	0xbcbccfe8	-0.023048356
82	0x3c9fb6e0	0.019496381
83	0xbcb10228	-0.021607473
84	0xbbef09e0	-0.0072948784
85	0xbd08e982	-0.033425815
86	0xbd49197e	-0.049096577
87	0xbd757d38	-0.05993387
88	0x3ca43778	0.02004598
89	0x3d4fbfba	0.050719954
90	0xbd015186	-0.031571887
91	0xbd2f6efc	-0.042830452
92	0x3d18e7fa	0.037330605
93	0xbc1738e8	-0.009229876
94	0xbd4889ee	-0.048959665
95	0xbb202d20	-0.002444096
96	0x3c062338	0.008187108
97	0x3d38f42e	0.045154743
98	0xbc5cfaa8	-0.0134874955
99	0xbcaea394	-0.021318235
100	0x3cdeee28	0.027213171
101	0x3d57d43a	0.05269263
102	0xbce34548	-0.027742997
103	0xbd142532	-0.036168285
104	0x39bcc900	0.0003600791
105	0xbd7b5294	-0.06135805
106	0x3d085618	0.03328523
107	0xbc941358	-0.01807563
108	0xba779580	-0.00094445795
109	0xbca829b8	-0.020527706
110	0x3d02cfc4	0.031936422
111	0xbd2bf698	-0.041983217
112	0x3ce29d74	0.02766297
113	0xbc52dcd0	-0.012870029
114	0xbce990dc	-0.028511457
115	0x3d13b21c	0.03605853
116	0x3d4bee78	0.04978797
117	0xbcd540a0	-0.026031792
118	0xbd6c7dba	-0.05773709
119	0x3c5fc2d8	0.013657294
120	0x3d28ba04	0.041193023
121	0x3d25c9e4	0.04047574
122	0xbd2ff860	-0.04296148
123	0xbd78bf70	-0.060729444
124	0xbaaa28c0	-0.0012982115
125	0x3c79adb0	0.015239164
126	0x3d5a61d0	0.053315938
127	0x3d1d5444	0.03841044
128	0x3c638d40	0.013888657
129	0xbc8af740	-0.016963601
130	0x3d28d55a	0.041219093
131	0xbb2f5c60	-0.002675794
132	0x3d582c1e	0.05277645
133	0x3d79e9dc	0.06101404
134	0xbd139ff6	-0.036041223
135	0xbd28d47e	-0.041218273
136	0xbd100a00	-0.035165787
137	0xbc1b8750	-0.00949271
138	0x3ca7f698	0.020503327
139	0x3ce3ca54	0.027806439
140	0x3d2461fc	0.040132508
141	0x3cef06b4	0.029178001
142	0x3d71ec72	0.059063382
143	0xbd2bdc18	-0.041957945
144	0x3cdd09ec	0.02698227
145	0xbc196b78	-0.009364001
146	0xbd66b390	-0.056323588
147	0xbd60cbf6	-0.054882012
148	0x3aa67040	0.0012698248
149	0x3ca8e8ac	0.02061876
150	0x3bd1b4f0	0.0063997433
151	0xbcd7fce0	-0.026365697
152	0xbd1b3c0c	-0.037899062
153	0xbd48cc46	-0.049022935
154	0xbc53a0b0	-0.012916729
155	0x3d131d22	0.035916455
156	0x3b614b40	0.0034377128
157	0x3d1038d0	0.03521043
158	0x3c643108	0.013927706
159	0x3d7f8ec8	0.062392026
160	0x3bb29530	0.0054499134
161	0xbd180c4e	-0.03712111
162	0x3d07b94a	0.03313569
163	0x3cf46bb8	0.02983652
164	0xbc438220	-0.01193288
165	0x3c8cbdf0	0.017180413
166	0x3ce79578	0.028269514
167	0x3cdc5030	0.026893705
168	0xbcf88c74	-0.03034041
169	0x3d3c178e	0.0459209
170	0xbd490e7c	-0.04908608
171	0xbd2314be	-0.039814703
172	0x3c0f5768	0.008748867
173	0x373ea000	1.1362135e-05
174	0x3c574c00	0.013140678
175	0xbb809520	-0.003924027
176	0x3caccad4	0.02109281
177	0xbd5d6f64	-0.05406131
178	0x3d075fca	0.033050336
179	0x3c6c42e8	0.014420249
180	0xbcfcf46c	-0.030878268
181	0xbc97d1e8	-0.018532708
182	0xbd4e5a60	-0.050379157
183	0x3d343f04	0.04400541
184	0x3c3d7188	0.0115627125
185	0xbceae7a8	-0.028674915
186	0x3d21f5c2	0.039541014
187	0x3d2c6478	0.042088002
188	0xbd740574	-0.059575513
189	0x3d010f0c	0.03150849
190	0xbd152e30	-0.036421
191	0xbb2a9100	-0.0026026368
192	0xbbf4af70	-0.007467203
193	0x3cfd6580	0.030932188
194	0x3d51c868	0.051216513
195	0xbd2db9a0	-0.042413354
196	0x3d530cc4	0.051525846
197	0xba020580	-0.0004959926
198	0x3b5dd0e0	0.0033846423
199	0xbcfd360c	-0.03090956
200	0xbb710500	-0.0036776662
201	0xbd669408	-0.056293517
202	0xbb44c540	-0.0030024797
203	0xbcea2f3c	-0.028586976
204	0x3c63a7d8	0.013894998
205	0x3d6fb4cc	0.05852203
206	0x3d7a30c6	0.06108167
207	0xbc90e650	-0.017687947
208	0xbb2db180	-0.0026503503
209	0xbcee4700	-0.02908659
210	0x3c8343f0	0.016023606
211	0xbd772880	-0.06034136
212	0x3c154d20	0.009112626
213	0x3a814ec0	0.0009865388
214	0x3c9ea944	0.019367822
215	0x3d34fd52	0.044186898
216	0x3d3ce75a	0.04611907
217	0x3d4c776a	0.04991857
218	0xbc84b828	-0.016201094
219	0x3c20fb18	0.00982549
220	0xbd324f26	-0.043532513
221	0x3d73717c	0.0594344
222	0x3d622dea	0.05521957
223	0xbd555c56	-0.05209001
224	0xbd245af4	-0.040125802
225	0xbc61cfa0	-0.013782412
226	0x3cfc5070	0.030800074
227	0xbd73df8c	-0.059539363
228	0x3d30c79a	0.043159105
229	0xbd0dc770	-0.034614027
230	0xbd109606	-0.035299323
231	0xbccd7390	-0.025079519
232	0x3d4a5866	0.04940071
233	0x3ba83b80	0.005134046
234	0xbd7a6b12	-0.061137266
235	0x3d49def6	0.049284898
236	0x3d3ca0f2	0.046051927
237	0xbd1fbe34	-0.03899975
238	0x3bc285f0	0.0059363768
239	0xbcf30410	-0.029665023
240	0x3c6a84c8	0.014313884
241	0x3d2a7fd4	0.041625813
242	0xbd35dd06	-0.044400238
243	0xbd1d6a94	-0.03843172
244	0xbd6f2332	-0.058383174
245	0x3b17d6c0	0.0023168772
246	0x3d749bb6	0.05971881
247	0x3c998718	0.018741176
248	0xbc790ae0	-0.015200347
249	0x3d336aa4	0.043802872
250	0x3d0797d0	0.033103764
251	0xbd0f2ce0	-0.034954906
252	0xbb2907c0	-0.0025791973
253	0x3c2d3738	0.010572247
254	0x3cf8ae98	0.03035669
255	0x3d570ae2	0.052500613

value_layer3.bias f4 [256]
0	0x3d25f348	0.040515214
1	0xbc249318	-0.0100448355
2	0xbd751c44	-0.05984141
3	0x3d16e7c2	0.036842115
4	0xb9dff800	-0.0004271865
5	0xbd136392	-0.03598363
6	0x3c0657b0	0.008199617
7	0xbc4d5078	-0.012531392
8	0xbaa26380	-0.0012389272
9	0xbd3ec402	-0.046573646
10	0xbb9ace40	-0.004724294
11	0xbd3580b4	-0.044312194
12	0xbb6aeb00	-0.0035845637
13	0xbd38ee28	-0.045149
14	0x3cacb834	0.021083929
15	0x3c40c658	0.011766039
16	0xbc84b1a8	-0.016197994
17	0xbd1fa82c	-0.03897874
18	0x3d5ae4be	0.0534408
19	0xbd752fe6	-0.059860133
20	0xbd52879c	-0.05139886
21	0xbd798cf6	-0.060925446
22	0xbd619df0	-0.05508226
23	0xbc7e9500	-0.015538454
24	0xbd543326	-0.05180659
25	0xbb8bc160	-0.0042649955
26	0x3d3c53b8	0.045978278
27	0xbd18e3f6	-0.037326775
28	0xbcc7edc8	-0.024405375
29	0xbcbe0dac	-0.023199879
30	0x3d449924	0.04799761
31	0x3c57a7d8	0.013162576
32	0x3d2ccd6c	0.042188093
33	0x3d7dfbc2	0.062007673
34	0x3d176020	0.036956906
35	0xbbdb6780	-0.006695688
36	0x3c6e1eb0	0.014533684
37	0xbc79b8e8	-0.015241839
38	0x3d0964d6	0.03354343
39	0x3d75d73a	0.06001971
40	0xbce95418	-0.028482482
41	0x3cee50d8	0.029091284
42	0xbce9b6ec	-0.028529607
43	0x3d5012fa	0.050799347
44	0xbcb0c460	-0.021578014
45	0xbd31a526	-0.04337039
46	0xbd3fdc64	-0.04684104
47	0x3d6a35c0	0.057180166
48	0x3d23ed78	0.04002139
49	0x3cf22228	0.029557303
50	0x3ce4dbe4	0.027936883
51	0xbd55d05e	-0.052200668
52	0x3ce534e4	0.027979322
53	0x3bcfdc00	0.0063433647
54	0x3d5aa9aa	0.05338446
55	0x3cc448cc	0.023960494
56	0x3d5741dc	0.052553043
57	0xbb9725d0	-0.004612662
58	0x3d79146c	0.06081049
59	0xbc737740	-0.014859974
60	0xbca081dc	-0.019593172
61	0x3cca4580	0.024691343
62	0xbd7ddab6	-0.061976157
63	0xbd5bd02e	-0.053665332
64	0xbcf0b0f8	-0.02938126
65	0xbd788944	-0.06067778
66	0x3cb8cb3c	0.022557847
67	0xbce639d0	-0.028103739
68	0x3cd643f4	0.02615545
69	0xbccdb6b0	-0.025111526
70	0xbcab2624	-0.02089221
71	0x3b933470	0.004492335
72	0x3c8efd88	0.017454877
73	0xbd1aa80a	-0.03775791
74	0xbcdbb95c	-0.026821785
75	0xbc79f358	-0.015255772
76	0xbd0a4680	-0.03375864
77	0x3caf3514	0.021387614
78	0xbcb8babc	-0.02254998
79	0xbcee3af0	-0.029080838
80	0x3c8e3e50	0.017363697
81	0xbc9649c0	-0.018345714
82	0x3d08e2da	0.033419468
83	0xbd6973de	-0.056995265
84	0xbbba8300	-0.005691886
85	0xbc6067f0	-0.013696656
86	0xbc609c70	-0.013709173
87	0x3d642f0a	0.055708922
88	0xbd0ed7f2	-0.03487391
89	0x3d31f08a	0.043442287
90	0x3b5eb6e0	0.0033983514
91	0xbd730956	-0.059335075
92	0xbc0776c0	-0.008268058
93	0x3cf43820	0.029811919
94	0x3d344b30	0.044017017
95	0xbbdae140	-0.006679684
96	0xb836c800	-4.3578446e-05
97	0x3c4cbea0	0.01249662
98	0xbd258230	-0.04040736
99	0x3c28e488	0.010308392
100	0xb905f600	-0.0001277551
101	0x3d4f6558	0.05063376
102	0xbc9cadcc	-0.019125842
103	0xbd0b63b0	-0.034030616
104	0xbb79afc0	-0.003809914
105	0xbce6bb88	-0.028165594
106	0xbbac9230	-0.0052664503
107	0x3d6c27be	0.05765509
108	0xbccad8f4	-0.024761654
109	0x3c88af2c	0.016685091
110	0x3d502f00	0.050826073
111	0x3c8054a4	0.01566536
112	0x3ce76e88	0.028250948
113	0x3cafc884	0.021457918
114	0x3d000eee	0.031264238
115	0xbbcc6d60	-0.0062386245
116	0x3d084174	0.033265546
117	0x3c68a8f8	0.014200442
118	0x3b379d20	0.0028017238
119	0x3b565620	0.0032705143
120	0xbcd24ee8	-0.025672391
121	0xbd611752	-0.05495388
122	0xbc65d648	-0.014028139
123	0xbcb275f0	-0.021784753
124	0xbcd19640	-0.02558434
125	0x3c6a49f8	0.014299862
126	0xbc8d1e0c	-0.017226242
127	0xbcc7ccb8	-0.02438961
128	0x3cc046f4	0.023471333
129	0x3d239566	0.0399374
130	0x3c900af0	0.01758334
131	0x3d37564c	0.044760033
132	0xbc370b68	-0.011172153
133	0xbc9caeb0	-0.019126266
134	0x3b754c40	0.0037429482
135	0x3c743d88	0.014907248
136	0xbbf56620	-0.007488981
137	0xbd72858a	-0.059209384
138	0x3d067d20	0.032834172
139	0x3d0f736a	0.035022177
140	0xbcc3fd44	-0.023924477
141	0x3c486f18	0.012233518
142	0xbceebc70	-0.029142588
143	0xbd6a964a	-0.057272233
144	0x3c28c1c8	0.010300107
145	0xbd5b36ce	-0.053519063
146	0xbd43f806	-0.047843955
147	0x3d76d27a	0.06025932
148	0xbbcca8c0	-0.0062457025
149	0x3d1d5a62	0.038416274
150	0xbccecf6c	-0.02524539
151	0xbc8f4918	-0.017490909
152	0xbc832938	-0.016010866
153	0xbd519fc0	-0.05117774
154	0x3d4f0d98	0.050550073
155	0xbb7dea80	-0.003874451
156	0x3b6a56c0	0.0035757273
157	0xb969e000	-0.00022304058
158	0x3d622bf6	0.055217706
159	0x3c877998	0.016537473
160	0x3bfe1500	0.0077539682
161	0x3cf1a254	0.02949635
162	0xbce5fce4	-0.02807469
163	0x3d535488	0.051594287
164	0xbd76a7d2	-0.06021864
165	0xbd33e9a0	-0.043923974
166	0xbc928b14	-0.017888583
167	0x3d1caeca	0.03825263
168	0xbba2a160	-0.004963085
169	0xbd22e876	-0.039772473
170	0xbd35fd14	-0.044430807
171	0xbc0bb258	-0.008526407
172	0x3d58d040	0.052932978
173	0x3d06fe6e	0.032957487
174	0x3d072240	0.032991648
175	0xbd64a834	-0.055824474
176	0xbd3dda48	-0.046350747
177	0x3d4c2ec6	0.049849294
178	0x3c8b1bf8	0.01698111
179	0xbcdd92d4	-0.027047552
180	0xbcabb44c	-0.020959996
181	0x3cbe0700	0.023196697
182	0x3d6fba44	0.058527246
183	0xbd582b86	-0.052775882
184	0xbd64aac8	-0.055826932
185	0x3d71edec	0.05906479
186	0x3cd65314	0.026162662
187	0x3ccaf5a8	0.024775341
188	0xbd17816e	-0.03698867
189	0x3ca3cc08	0.01999475
190	0x3ca5d818	0.020244643
191	0x3cf2e430	0.029649824
192	0x3c8d35c8	0.017237559
193	0xbca72a78	-0.020405993
194	0x3d0b3472	0.033985563
195	0x3c69dc40	0.014273703
196	0x3d75d526	0.060017727
197	0x3d256fa2	0.040389664
198	0xbcba21b8	-0.022721156
199	0xbd10bd60	-0.035336852
200	0xbcb5d2d4	-0.022195257
201	0x3cf12be4	0.029439874
202	0x3d46d0ee	0.048539095
203	0xbd461930	-0.048363864
204	0x3d40c21a	0.04706011
205	0xbcca4e8c	-0.024695657
206	0x3c98f268	0.018670276
207	0xbd7099c6	-0.0587404
208	0xbc99b7d4	-0.018764414
209	0xbcc84790	-0.024448186
210	0x3c8755c4	0.016520388
211	0xbca42d1c	-0.020041041
212	0xbb9f0bd0	-0.004853703
213	0xbcddf3b4	-0.027093746
214	0x3cf59534	0.029978372
215	0x3ab31c00	0.0013664961
216	0xbd1bd034	-0.038040355
217	0xbcd05cd8	-0.025434896
218	0x3d7612e8	0.060076624
219	0xbd78e22a	-0.06076256
220	0xbd0ffa10	-0.035150588
221	0xbc1bf8d8	-0.009519778
222	0x3ba5e270	0.005062394
223	0x3cdd206c	0.026992999
224	0xbb7b2740	-0.0038322955
225	0x3cc4e838	0.024036512
226	0xbcde4b54	-0.027135529
227	0xbbd08aa0	-0.0063641816
228	0xbc1e2588	-0.009652503
229	0xbd48edca	-0.0490549
230	0xbbaab880	-0.0052099824
231	0xbcbf51e0	-0.02335447
232	0x3c6dc668	0.014512636
233	0x3d0423a2	0.032260545
234	0xbc88203c	-0.016616933
235	0x3bc67720	0.0060566813
236	0x3c94ec24	0.018179007
237	0x3d004cb4	0.03132315
238	0xbc8bc438	-0.017061338
239	0xbcd72344	-0.026261933
240	0x3ca81408	0.020517364
241	0xbc8020e4	-0.015640683
242	0x3d12d9f4	0.035852388
243	0x3d34aa76	0.044107877
244	0x3c027038	0.007961325
245	0xbd5b718e	-0.05357509
246	0x3c5dca48	0.013536997
247	0xbd7618c6	-0.06008222
248	0xbd78882c	-0.06067674
249	0x3c94b2b8	0.018151626
250	0x3bd7b650	0.0065830126
251	0xbcb1bf80	-0.02169776
252	0x3d751ec4	0.059843794
253	0x3d0465c6	0.03232362
254	0xbd124f16	-0.035719953
255	0xbd032ab4	-0.032023147

value_layer4.weight f4 [4, 256]
0	0xbd36d67a	-0.044638135
1	0x3d097024	0.03355421
2	0x3d0798ec	0.033104822
3	0x3c8f6668	0.017504886
4	0xbd50bc38	-0.05096075
5	0xbc1ff6d8	-0.009763442
6	0xbb263360	-0.0025360212
7	0xbd00d2e0	-0.031451106
8	0x3d729b12	0.059229918
9	0xbd111486	-0.035419963
10	0x3ca49b34	0.020093538
11	0x3d6a8b20	0.057261586
12	0x3d3d4e80	0.04621744
13	0xba9150c0	-0.0011086687
14	0xbd299f60	-0.041411757
15	0x3d445e34	0.0479414
16	0x3d6c68be	0.057717077
17	0xbc081178	-0.008304946
18	0x3cb22fd0	0.021751314
19	0x3b0eb5a0	0.0021775737
20	0xbd24399c	-0.040094003
21	0x3ccdbcec	0.025114499
22	0xbcad7b40	-0.021176934
23	0x3d77f4e8	0.060536295
24	0xbccd2a70	-0.02504465
25	0x3d47bbf0	0.048763216
26	0x3c9ae210	0.018906623
27	0xbd2625a2	-0.040563233
28	0xbd55acfe	-0.05216693
29	0x3d5757f8	0.052574128
30	0x3d7ab354	0.061206177
31	0x3d1cbf28	0.03826824
32	0xba529080	-0.00080323964
33	0xbb84ceb0	-0.0040529594
34	0x3d46356c	0.04839079
35	0x3d514614	0.051092222
36	0xbc59ae88	-0.01328624
37	0x3d03f728	0.03221813
38	0x3cdb4a80	0.026768923
39	0xbccc389c	-0.024929337
40	0x3c307358	0.010769688
41	0x3bdc9f70	0.0067328736
42	0xbd3f880a	-0.046760596
43	0x3a72c280	0.000926055
44	0x3c85250c	0.016253017
45	0x3c563820	0.013074905
46	0xbba0b1d0	-0.0049040094
47	0x3d5fc56c	0.054631636
48	0x3c296e20	0.010341197
49	0x3b8d7760	0.004317209
50	0xbcbcc36c	-0.023042403
51	0x3c65b600	0.014020443
52	0xbc9118d8	-0.017712042
53	0x3b9f84a0	0.004868105
54	0xbd14fdf0	-0.036374986
55	0xbd384ea4	-0.044996873
56	0x3c1c2b58	0.009531818
57	0x3afc2a40	0.0019238666
58	0x38ce1000	9.825826e-05
59	0x3c819c88	0.01582171
60	0xbd4399f4	-0.047754243
61	0x3ca98b50	0.020696312
62	0x3c77d4f8	0.015126459
63	0x3d7a4cc0	0.06110835
64	0xbd4b1a74	-0.049585775
65	0x3c8cf450	0.017206341
66	0xbab21540	-0.0013586655
67	0x3d5b566e	0.053549223
68	0xbd01dd44	-0.031705156
69	0x3b683aa0	0.0035435334
70	0x3bcd5d30	0.0062672123
71	0x3d419ecc	0.04727058
72	0x3d282f80	0.041060925
73	0x3ae4dc40	0.0017460659
74	0x3cace60c	0.021105789
75	0x3d6a2fce	0.057174496
76	0x3cad0cdc	0.021124296
77	0x3d52b330	0.051440418
78	0x3ca4e4ec	0.02012869
79	0x3d277d40	0.040890932
80	0x39c32e00	0.0003722757
81	0xbb9df080	-0.0048199296
82	0xbd403758	-0.04692778
83	0x3d2d3160	0.042283416
84	0xbd2e3646	-0.042532228
85	0x3d2116c8	0.039328367
86	0xbcfbe744	-0.030749924
87	0x3b2c7180	0.0026312768
88	0x3cc30d24	0.023809977
89	0x3d221124	0.039567128
90	0xbd59431c	-0.053042516
91	0x3a6a1000	0.0008928776
92	0x3ce32a54	0.027730145
93	0x3d400066	0.04687538
94	0xbcf63a08	-0.030056968
95	0x3d322782	0.04349471
96	0x3d41921c	0.04725848
97	0x3c855dec	0.016280137
98	0xbc9a8eac	-0.01886686
99	0xbd788bee	-0.060680322
100	0x3baabda0	0.0052105933
101	0xba9ee8c0	-0.0012123808
102	0x3bbb1ed0	0.0057104602
103	0xbc9ee780	-0.019397497
104	0xbd0864da	-0.033299305
105	0x3b693840	0.0035586506
106	0x3d718ea6	0.05897393
107	0xbd2f3ba0	-0.042781472
108	0xba4c0180	-0.0007782206
109	0xba95b780	-0.0011422485
110	0xbd77ccb6	-0.060497962
111	0xbcec2720	-0.02882725
112	0x3d397286	0.045275234
113	0x3d02933a	0.031878687
114	0x3ca06ef8	0.019584164
115	0xbd69d46a	-0.05708734
116	0xbcef1890	-0.029186517
117	0x3d326bca	0.043559827
118	0xbd6b1428	-0.05739227
119	0xbd34728e	-0.04405456
120	0xbcf0fab8	-0.029416427
121	0x3d7a39e0	0.06109035
122	0x3c3110a8	0.010807194
123	0xbd433dd4	-0.047666386
124	0x3af6c6c0	0.0018827543
125	0xbc89d8b8	-0.016826972
126	0x3ca2a81c	0.019855551
127	0xbd4d8566	-0.050176047
128	0x3bd43850	0.0064764395
129	0xbd42675c	-0.047461852
130	0x3c49f2c8	0.01232595
131	0x3d172d98	0.036908716
132	0xbc6eb7d0	-0.0145701915
133	0xbce8225c	-0.028336696
134	0x3cfe36cc	0.031031989
135	0x3cc4b1b8	0.024010524
136	0x3cafb024	0.021446295
137	0x3b8a43a0	0.0042194873
138	0xbc2a6408	-0.010399826
139	0x3c68df28	0.014213361
140	0xbccd12b0	-0.025033325
141	0x3cc64520	0.024202883
142	0xbcb4bd7c	-0.02206301
143	0x3d79ee3a	0.061018206
144	0xbd742136	-0.059601985
145	0x3d624638	0.055242747
146	0x3c18c1b8	0.00932353
147	0xbc9b3104	-0.01894427
148	0xbd717a38	-0.058954448
149	0x3cd6c9f8	0.026219353
150	0x3cf84ea0	0.030310929
151	0xbbd375b0	-0.0064532384
152	0xb952d800	-0.00020107627
153	0xbc9dbfbc	-0.019256465
154	0xbd567c4e	-0.05236464
155	0x39ce5f00	0.00039362162
156	0x3d3932d8	0.045214504
157	0x3d76ba12	0.060236044
158	0x3d141e36	0.036161624
159	0x3d5f3580	0.05449438
160	0x3cd8b34c	0.026452683
161	0x3c162158	0.009163223
162	0x3b887e90	0.004165478
163	0x3c8b249c	0.01698523
164	0xbce3eaec	-0.02782198
165	0x3ced9ae0	0.029004514
166	0x3cccc008	0.024993911
167	0x3cb248d0	0.021763235
168	0xbd762558	-0.060094208
169	0x3c7430e0	0.014904231
170	0x3d08975c	0.033347473
171	0x3d1fc408	0.03900531
172	0x3ceed0c4	0.029152282
173	0xbb8f9170	-0.004381351
174	0xbd059e4c	-0.032621667
175	0x3d42f644	0.04759814
176	0xbb98cb20	-0.0046628863
177	0x3d7cecc2	0.061749227
178	0x3be5cb80	0.0070127845
179	0xbd54d554	-0.051961258
180	0x3d598fc0	0.053115606
181	0xbd641d3a	-0.055691935
182	0xbd4f2238	-0.050569743
183	0xbd4ad132	-0.04951591
184	0xbd245046	-0.040115617
185	0x3caa3acc	0.02077999
186	0x3b655d00	0.003499806
187	0xbccd5a78	-0.025067553
188	0x3cb79bd4	0.022413172
189	0x3cebe340	0.028794885
190	0x3cd894fc	0.026438229
191	0x3d7d5b94	0.061854914
192	0xbd274388	-0.040835887
193	0x3d08f1ce	0.033433728
194	0xbcdf3990	-0.027249128
195	0xbd781072	-0.06056256
196	0x3d0419c8	0.03225115
197	0x3cb63400	0.022241592
198	0x3c0885f0	0.008332714
199	0x3d6f6674	0.058447316
200	0xbcc8fc94	-0.024534501
201	0x3d5d698c	0.054055735
202	0x3c3cfe00	0.011535168
203	0xbd45b770	-0.048270643
204	0x3b97eb40	0.0046361983
205	0x3d2e7008	0.04258731
206	0xbd465926	-0.048424862
207	0xbd06985a	-0.032860138
208	0x3d6555e0	0.0559901
209	0xbd1bd906	-0.038048767
210	0xbcf6fd4c	-0.030150078
211	0x3d6c01cc	0.0576189
212	0xbd4d55bc	-0.05013059
213	0x3c08b2f8	0.008343451
214	0x3cb60840	0.02222073
215	0xbd0644be	-0.0327804
216	0x3d69f812	0.057121344
217	0x3bf36020	0.0074272305
218	0xbc40b248	-0.011761256
219	0xbb5322c0	-0.0032216758
220	0x3ca5ebf0	0.020254105
221	0x3d77901a	0.06044016
222	0xbc9dba7c	-0.019253962
223	0xbcf3a8c4	-0.02974356
224	0x3c8a6164	0.016892143
225	0x3cf3bf78	0.029754385
226	0x3d38bd4a	0.045102395
227	0x3c3046e8	0.010759093
228	0x3d104b0a	0.035227813
229	0xbd508306	-0.050906204
230	0x3d7b84f0	0.061406076
231	0xbc180f60	-0.009281009
232	0xbd69b7be	-0.057059996
233	0xbd1c3af4	-0.03814216
234	0x3d257100	0.04039097
235	0xbd47cab2	-0.04877729
236	0x3b351d60	0.0027635917
237	0x3cd7de70	0.026351184
238	0x3d0ab2a2	0.033861764
239	0xbd73b686	-0.05950024
240	0x3d1ed15c	0.03877388
241	0xbc8026a0	-0.015643418
242	0x3b074340	0.002063945
243	0x3d5a8f76	0.05335947
244	0x3d72b618	0.05925569
245	0x3c528850	0.012849882
246	0xbd6e8ac6	-0.058237813
247	0xbd059b0c	-0.032618567
248	0xbd13aa80	-0.036051273
249	0x3d3505d8	0.044195026
250	0x3d762cca	0.060101308
251	0x3cc69ed0	0.02424565
252	0xbc3fc910	-0.011705652
253	0xbd3772f2	-0.044787355
254	0xbd17fc68	-0.037105948
255	0xbcb427c0	-0.02199161

value_layer4.bias f4 [4]
0	0xbcf3f51c	-0.029779963
1	0x3c1b5e08	0.009482868
2	0x3c08ce10	0.00834991
3	0x3d2864f8	0.041111916
